data.pth (torch, 5983 bytes, 6 tensors)

l1.weight f4 [8, 67]
0	0x3e65faf0	0.22459006
1	0xbe733c23	-0.23753409
2	0x3ef0359a	0.46915895
3	0x3f64fc45	0.8944743
4	0xbe03bfb5	-0.12866099
5	0x3dad104f	0.08450376
6	0xbef7a6aa	-0.48369342
7	0x3ed25e79	0.41087702
8	0x3e24d686	0.16097459
9	0x3ecbf4ec	0.39835298
10	0x3f09c4c3	0.5381586
11	0x3e8c32c5	0.27382484
12	0x3ea19f47	0.3156683
13	0xbe396ca5	-0.18107851
14	0xbe83a439	-0.2571123
15	0xbe9c70a7	-0.30554697
16	0xbd78cc77	-0.060741868
17	0xbdf384a9	-0.11890537
18	0x3e8b77c5	0.27239814
19	0xbef7ac58	-0.48373675
20	0xbe1d70b5	-0.15375026
21	0xbe2eb29b	-0.1706032
22	0x3e9fc919	0.31208113
23	0xbd02c236	-0.031923495
24	0x3eb84320	0.35988712
25	0x3e9c429b	0.30519566
26	0xbf0a3059	-0.5398002
27	0x3eaa228f	0.3322949
28	0x3ef1a780	0.47198105
29	0x3ef74861	0.48297408
30	0xbe9261ab	-0.2859014
31	0xbe4adc27	-0.19810544
32	0xbddb2ff0	-0.10702503
33	0xbe571ade	-0.21006343
34	0xbed84019	-0.42236403
35	0xbeb9d67a	-0.36296445
36	0xbe6c6eb4	-0.23089105
37	0x3efa6982	0.4890862
38	0xbce7efb8	-0.028312549
39	0xbe306b37	-0.17228399
40	0x3f12f61b	0.5740678
41	0xbd9d9a50	-0.076954484
42	0x3f7b33b7	0.98125786
43	0x3e8e0e55	0.2774531
44	0x3f01ebdf	0.50750536
45	0xbd6808f7	-0.056649175
46	0x3e0f939f	0.14021157
47	0x3e7870ff	0.24261855
48	0xbf1645d0	-0.58700275
49	0xbf1f331a	-0.6218735
50	0xbe2bc40f	-0.16774009
51	0x3eec8eeb	0.46202788
52	0xbe0f1c18	-0.1397556
53	0x3ca3a74f	0.01997724
54	0xbe82a1ff	-0.25514218
55	0x3de9e7f8	0.11421198
56	0xbe291be3	-0.16514544
57	0xbdd82714	-0.105543286
58	0xbe060090	-0.13086152
59	0x3beb0a0e	0.0071728295
60	0xbe684d34	-0.226857
61	0xbe2d8689	-0.16945852
62	0x3f31e9af	0.694972
63	0x3e4f856d	0.20265742
64	0xbd42595e	-0.04744851
65	0x3f06ab27	0.5260491
66	0xbd112473	-0.03543515
67	0x3f0ef53d	0.55842954
68	0xbdc5d0a2	-0.09658934
69	0xbea5887b	-0.3233069
70	0x3f05b0ef	0.52223104
71	0x3e70b1e8	0.23505366
72	0xbd502ff9	-0.050827
73	0x3f4f1fea	0.8090807
74	0x3e9f9be8	0.31173635
75	0xbe93df2a	-0.28881198
76	0xbe593574	-0.21211797
77	0xbf1d37a2	-0.61413014
78	0xbe193fca	-0.1496574
79	0x3e83e02d	0.2575697
80	0xbe7c2739	-0.24624337
81	0xbf1d9dba	-0.61568797
82	0xbed211fa	-0.4102934
83	0xbe03ab83	-0.12858395
84	0x3bfa7102	0.007642866
85	0x3e762769	0.24038471
86	0x3f2b5a2e	0.6693448
87	0xbe08b30e	-0.13349554
88	0xbe8095fa	-0.25114423
89	0x3f050d72	0.5197364
90	0x3ec2af4b	0.38024363
91	0x3e977656	0.2958247
92	0x3ed5eee8	0.41783834
93	0xbf1d00e1	-0.61329466
94	0x3eac0186	0.33594912
95	0x3e483308	0.19550717
96	0x3f0bb4f4	0.5457299
97	0xbe8d46c8	-0.27593064
98	0xbea65eee	-0.324943
99	0xbe4d93fb	-0.20075981
100	0xbe98700b	-0.29772982
101	0x3e8a6a9a	0.27034456
102	0xbe83626f	-0.25661036
103	0x3eae0426	0.3398754
104	0xbe518e56	-0.20464453
105	0xbe962387	-0.2932398
106	0xbdbdd961	-0.09269977
107	0x3f0967fe	0.53674304
108	0xbe7b181e	-0.24520919
109	0x3f0d3b24	0.55168366
110	0x3e045602	0.12923434
111	0xbf1587f3	-0.5841057
112	0xbe973d60	-0.29539013
113	0xbea0f09a	-0.31433564
114	0xbe8cf8e1	-0.2753363
115	0x3ed35949	0.41279057
116	0xbed09131	-0.40735772
117	0xbe7bfae1	-0.24607421
118	0x3eecdd2d	0.46262494
119	0xbe89774c	-0.2684883
120	0xbe983e78	-0.2973516
121	0xbe3caebe	-0.18426034
122	0x3f5d0690	0.8633814
123	0x3ee2fa8b	0.44331774
124	0x3d7fcbe8	0.06245032
125	0xbe3bbb21	-0.18333103
126	0xbdcb0ef3	-0.09914961
127	0xbdfd8d83	-0.12380507
128	0xbe011738	-0.12606514
129	0x3f1ae571	0.6050635
130	0xbe43cbdb	-0.19120733
131	0xbc81b38c	-0.015832685
132	0x3ef6c170	0.48194456
133	0x3e3e072e	0.18557426
134	0x3dca4fc9	0.09878499
135	0xbcab7ae4	-0.020932622
136	0x3ee8f323	0.45498
137	0x3ef99a40	0.48750496
138	0xbed30b69	-0.41219643
139	0x3e3b7c1a	0.1830906
140	0x3f62f7fd	0.8865965
141	0x3f07f0cb	0.53101796
142	0x3eb7144f	0.35757682
143	0x3f0edc5e	0.55805004
144	0x3f0e3fb0	0.5556593
145	0x3f1c2dd7	0.61007446
146	0xbea7cefb	-0.327751
147	0xbe811072	-0.2520786
148	0x3f0f1eef	0.55906576
149	0xbbeb455f	-0.0071799005
150	0x3d100e0a	0.03516964
151	0xbe2a6e02	-0.16643527
152	0xbe488fc7	-0.19586097
153	0x3f5c2d3a	0.8600651
154	0x3e3db17d	0.18524738
155	0x3ed37bbb	0.41305336
156	0xbf00e206	-0.50344884
157	0xbe93876d	-0.2881426
158	0xbee9ec30	-0.4568801
159	0xbf072fb0	-0.5280714
160	0xbe91ff87	-0.28515264
161	0x3dc87aff	0.09789085
162	0x3eeb4468	0.45950627
163	0x3ee4d4aa	0.446935
164	0x3f11341c	0.5672014
165	0xbdbf6b76	-0.093466684
166	0x3ed5215a	0.41627008
167	0xbebff6df	-0.37493035
168	0x3f096c3f	0.53680795
169	0xbcd2621c	-0.025681548
170	0xbce690df	-0.028145252
171	0x3f2b802d	0.66992456
172	0x3dcac7a5	0.099013604
173	0xbe44f15e	-0.192327
174	0x3f94ad00	1.1615295
175	0x3f25f3b2	0.64824975
176	0x3f3be3c0	0.73394394
177	0x3e96e16e	0.29468864
178	0x3f1a175f	0.6019191
179	0x3e7b5d5d	0.24547334
180	0x3eebb4cb	0.46036372
181	0x3ef3cb53	0.47616062
182	0x3ee3fa4d	0.44526902
183	0x3f1d939e	0.6155337
184	0xbe87240e	-0.26394695
185	0x3f076f66	0.52904356
186	0x3cdab2d2	0.026696596
187	0x3ed040b1	0.40674356
188	0x3dc9d705	0.09855465
189	0xbf3f2151	-0.7466021
190	0xbeb6622b	-0.3562177
191	0xbdf1877b	-0.11793419
192	0x3e682051	0.22668578
193	0x3f2b00c2	0.6679803
194	0xbc4339dd	-0.011915651
195	0x3eaefeb3	0.34178695
196	0x3f75cfd5	0.9602025
197	0x3efbf0b6	0.49207085
198	0x3e819d34	0.2531525
199	0x3ee22f7e	0.4417686
200	0x3f07c1db	0.53030175
201	0x3eddab62	0.43294817
202	0x3f3c40c0	0.735363
203	0x3e4db1a3	0.20087294
204	0x3f8d99c0	1.1062546
205	0x3ec87cb3	0.39157638
206	0xba194da2	-0.0005848055
207	0xbf26dbb7	-0.6517901
208	0xbe52aef2	-0.20574549
209	0x3e8874cc	0.2665161
210	0x3e906000	0.28198242
211	0x3e3d2c6c	0.18473977
212	0x3ed15fdf	0.40893456
213	0x3f075ddc	0.52877593
214	0xbe63f978	-0.22263134
215	0x3e0049c3	0.12528138
216	0xbf04969d	-0.5179232
217	0x3f169083	0.5881426
218	0xbcfffac8	-0.031247512
219	0x3ec8a87f	0.39191052
220	0xbf26dd71	-0.6518164
221	0xbe8527e0	-0.26006985
222	0xbe8458d6	-0.25849026
223	0x3f131a5f	0.57462114
224	0x3ee08197	0.4384887
225	0x3f322116	0.69581735
226	0x3f399e2e	0.7250699
227	0xbea9d5a9	-0.33170822
228	0x3f70e1bb	0.9409444
229	0xbd8b3c6d	-0.06798635
230	0x3ec4c5a4	0.38432038
231	0xbe95a453	-0.29226932
232	0x3f138114	0.5761883
233	0xbe6dbc80	-0.23216438
234	0x3f115e4a	0.567845
235	0xbed99c49	-0.4250205
236	0xbec80bdd	-0.3907155
237	0x3e026362	0.12733224
238	0x3ea3cabe	0.31990618
239	0x3f06e5df	0.52694505
240	0x3d3dd87d	0.046349037
241	0xbf37607a	-0.71631587
242	0xbe4902b9	-0.19629945
243	0x3f42b50c	0.76057506
244	0x3ea3a3c8	0.31960893
245	0x3e2b4355	0.16724904
246	0xbdfc405d	-0.12316964
247	0x3e62eafb	0.2215995
248	0x3ea7fa78	0.3280828
249	0xbebe9843	-0.3722554
250	0xbefab3f7	-0.48965427
251	0xbe89e967	-0.26935884
252	0xbdba237e	-0.09088801
253	0x3f15c65a	0.58505785
254	0x3d8ce2e2	0.06879212
255	0x3f17dce7	0.59321445

l1.bias f4 [8]
0	0x3ef7b0cf	0.48377082
1	0x3f5fe545	0.8745921
2	0x3f32bf9e	0.69823635
3	0x3f26dbfd	0.65179425
4	0x3f483569	0.782065
5	0x3f7993fd	0.9749144
6	0x3f545fd3	0.82958716
7	0x3f26961e	0.6507281

l2.weight f4 [8, 8]
0	0xbe99a40e	-0.30007976
1	0x3f095896	0.53650796
2	0xbf744617	-0.9541945
3	0xbebbb921	-0.3666468
4	0x3ef23adb	0.47310528
5	0x3f16bd73	0.58882827
6	0x3f6f0ab4	0.93375707
7	0x3f80313b	1.0015024
8	0xbd5e2d8c	-0.054242656
9	0x3ea4fc9d	0.3222398
10	0x3df37f45	0.11889509
11	0x3f32970c	0.6976173
12	0x3f3cc2fd	0.7373503
13	0xbf8b6941	-1.0891496
14	0x3f8e2e86	1.1107948
15	0x3db612cc	0.08890304
16	0xbe47ac6b	-0.19499366
17	0xbe88fe01	-0.2675629
18	0xbe40c80e	-0.18826315
19	0xbe125cfb	-0.14293282
20	0xbe8267d3	-0.25469837
21	0xbe9623c0	-0.2932415
22	0xbe909a3c	-0.2824267
23	0xbeacc8a9	-0.33746842
24	0xbea39b66	-0.31954497
25	0xbef56e25	-0.47935596
26	0x3f8db8f6	1.1072071
27	0xbf6295ea	-0.8851
28	0x3f95e1ae	1.1709497
29	0x3f7eb93b	0.9950139
30	0x3f94c983	1.1623996
31	0xbf5a445b	-0.8526055
32	0xbf432958	-0.7623496
33	0x3e363fa6	0.17797717
34	0x3f873adc	1.0564837
35	0xbf4355b7	-0.76302665
36	0x3dbe3088	0.092866
37	0x3fa3ca89	1.2796184
38	0x3cc0c7f5	0.023532847
39	0x3ebdc41c	0.37063682
40	0x3fa0f0d4	1.2573495
41	0x3f847216	1.0347316
42	0x3f8d3a9f	1.1033515
43	0x3e2508a1	0.16116573
44	0xbe116778	-0.14199626
45	0x3f11c152	0.5693561
46	0xbf93b186	-1.1538551
47	0x3f9ff8cb	1.24978
48	0x3f29b5a9	0.66292816
49	0x3fbe5706	1.4870307
50	0xbdabef55	-0.08395258
51	0x3f805b53	1.002787
52	0xbf881756	-1.0632122
53	0x3f69ecf3	0.9137718
54	0x3f5d71b6	0.86501634
55	0x3d5cbf02	0.053893097
56	0xbe1a86fa	-0.15090552
57	0xbf15048f	-0.5821008
58	0xbe9edd72	-0.31028324
59	0x3fb13fb8	1.384757
60	0x3f91fe07	1.1405648
61	0x3fbd6bd8	1.4798536
62	0xbf170066	-0.5898498
63	0x3ee1deb3	0.4411522

l2.bias f4 [8]
0	0x3efac9d5	0.4898211
1	0x3e987075	0.29773298
2	0xbe291a45	-0.16513927
3	0x3f1af994	0.60537076
4	0x3f18d6ae	0.59702575
5	0x3ed528f0	0.41632795
6	0x3eaf80b8	0.34277892
7	0x3e150d5f	0.14555882

l3.weight f4 [10, 8]
0	0xbf35a0d9	-0.7094856
1	0xbfeddd7f	-1.858322
2	0xbe598a0d	-0.21244068
3	0xbfb4ab2c	-1.4114738
4	0xbd8015d4	-0.062541634
5	0x3f1da884	0.6158526
6	0x3ef94788	0.48687387
7	0x3f00f1d7	0.5036902
8	0x3ec1686f	0.3777499
9	0xbf66d802	-0.9017335
10	0xbe5ec5b5	-0.21755107
11	0x3f0ee3c0	0.5581627
12	0x3eb05a41	0.34443858
13	0xbfca0025	-1.5781294
14	0xbed68d48	-0.41904664
15	0x3e714eb0	0.23565173
16	0xbf3a7b6f	-0.72844595
17	0x3f83fb40	1.031105
18	0xbe25ca13	-0.16190366
19	0x3dc48cd4	0.09597173
20	0xbf70d018	-0.94067526
21	0xbf8a5cc2	-1.0809557
22	0xbf57ede8	-0.8434739
23	0x3f36db63	0.7142851
24	0x3d43ae95	0.047773916
25	0xbf8c9645	-1.0983359
26	0xbda634c8	-0.08115536
27	0x3f000a21	0.50015455
28	0x3f439063	0.7639219
29	0xbed94c95	-0.4244124
30	0x3ebd306a	0.36951
31	0xbf96e299	-1.1787902
32	0x3f5feacd	0.8746765
33	0xbe638db3	-0.22222023
34	0xbe45536e	-0.19270107
35	0xbebf533c	-0.3736819
36	0xbf1d3ab6	-0.6141771
37	0xbd9ee9f3	-0.07759466
38	0x3d81cf41	0.06338359
39	0x3ef2a964	0.4739486
40	0x3f20acb9	0.62763554
41	0xbfb01d74	-1.3758988
42	0x3e4e688e	0.20157072
43	0xbead6776	-0.33867997
44	0x3f404761	0.75108916
45	0x3d749621	0.059713487
46	0xbfafe57a	-1.3741906
47	0x3edc5a5f	0.43037698
48	0xbe9889f4	-0.2979275
49	0xbe3a23de	-0.18177745
50	0xbe8d51b3	-0.27601394
51	0xbecdfbff	-0.4023132
52	0x3dbd698b	0.09248646
53	0x3f78b589	0.97152
54	0xbe3e086a	-0.18557897
55	0xbfbf1a24	-1.4929852
56	0xbf3968aa	-0.7242533
57	0x3f518895	0.8184903
58	0xbd903ef4	-0.07043257
59	0x3f35b26b	0.7097537
60	0x3efc6b97	0.49300835
61	0xbf8914c4	-1.0709462
62	0xbf5f4c81	-0.8722611
63	0xbf72139f	-0.9456119
64	0xbfc2f911	-1.5232259
65	0xbed32e9f	-0.41246507
66	0x3e921c77	0.28537342
67	0x3f21d685	0.63217956
68	0xbdd3a283	-0.10333731
69	0x3e2e931e	0.17048308
70	0xbeda8af4	-0.42684138
71	0x3ecde5ab	0.40214285
72	0x3f23d43c	0.6399572
73	0x3f6002e1	0.8750439
74	0x3e94ccb3	0.29062423
75	0xbff6ebaf	-1.9290675
76	0xbfc5a416	-1.54407
77	0xbe9e7871	-0.30951265
78	0x3f18e0d4	0.5971806
79	0xbedc682d	-0.4304823

l3.bias f4 [10]
0	0xbec82896	-0.39093465
1	0xbea6581f	-0.32489106
2	0x3e20dcc8	0.15709221
3	0x3d91df9e	0.0712273
4	0xbd6a294e	-0.057168297
5	0xbe77edeb	-0.24211852
6	0x3da0b744	0.07847455
7	0x3e23d89a	0.16000596
8	0xbe9e801c	-0.30957115
9	0x3d62a409	0.055332217
